model/model_para/PEMSD8/best_model.pth (torch, 598165 bytes, 48 tensors)

node_embeddings f4 [170, 2]
00000000: 18b7 5b3e 05f2 c9be 9505 2d3d 71a6 dfbe
00000010: 0fc6 4a3e 79eb 3ebe 2668 333e 2e78 e6be
00000020: 8b84 12bc b69f eebe e118 82be 123b 1dbf
00000030: 4407 ec3c 77af cbbe 6f14 813e 912f 9cbd
00000040: dc01 053f fa8c d63d 4872 f1bc 456a 99bf
00000050: f70b 0fbe 3446 32bf a7bf a33e 9717 6fbd
00000060: 09c4 e13e c9b6 c9be 962b 6d3e 8404 efbe
00000070: 21e4 083e 77f8 c1be 925e 07bf c928 6bbf
00000080: c67a 633f b8b5 2a3e 10e4 e23e ac0e cabe
00000090: 503a a83e 68e3 d1be 0a05 d8be 0e63 8dbf
000000a0: e980 b43e a19b 88be 30e3 653e f213 fcbd
000000b0: a99f 81be b50b 90bf 68e5 1f3e 8249 80be
000000c0: 3a76 8d3f e348 8e3e 267f 813e 8a7c 13be
000000d0: 046d bf3c 9a4f b0be d582 96bc 5bdc cfbe
000000e0: b2b5 e13e 2ab2 c9be 3402 10bc 3d99 74be
000000f0: 1317 a73d b7e6 1cbe 96eb 203e b068 f1bd
00000100: ca1f 413f 6f59 f0bc 73aa 783f 62de 2cbe
00000110: 2626 393f 8af3 0d3e d138 aabe 0127 6abf
00000120: 1501 263e cbf3 47be 7995 a03e 116c b83c
00000130: c54e 603e b094 3fbe 6ae2 7e3e b0cf 9bbe
00000140: 93e7 febd 64b3 cdbe e2e3 8b3d bd2d acbe
00000150: 7ae8 0f3f a793 cdbc adc1 e23d f969 97be
00000160: 25bc db3e 0ee2 45bd c69b 293e 9c87 96be
00000170: 30c0 16bf 770f a6bf 6b99 9e3d 429b 77be
00000180: ac11 0d3e 4bf6 30bf 844b c23e 7f3b 913c
00000190: 895c 1b3f be2c 47be 4255 1b3f 4635 47be
000001a0: 1b16 edbd 85ea 4dbf bfb4 c53e c142 92be
000001b0: 6e6d ac3e 65a9 65be c9a8 c23e 4375 02bf
000001c0: d1b9 f63e ec5f 0bbe bfca 0d3f 380c 86bd
000001d0: ee51 873e 0795 5cbc d15e e13d 37ac fdbd
000001e0: e690 be3e fab5 20be 8407 0d3e 7ff7 30bf
000001f0: 97a4 dc3e 2afe aebe 88da 74be 97a1 46bf
00000200: ee83 113e 8a2b 31bf 50ed 4f3d a3b7 42be
00000210: e0b3 023e b5c7 f4bd 0343 043e 6161 d6bd
00000220: befd da3e 5797 f23d 0164 433e 3398 27be
00000230: eab3 c23e 3678 02bf ae46 05be ccdb f6be
00000240: 7a62 243d 3c38 21be 61b3 c23e 0f7a 02bf
00000250: b75a 1b3f 0627 47be cd60 1b3f 7126 47be
00000260: 64a8 b53c 78cb 88be d0dc 36be 7bbf 13bf
00000270: 0da6 11bf 262b 3cbf e930 933e a10c 0c3e
00000280: c304 0d3e 47f6 30bf 33aa c23e b184 02bf
00000290: 0f8a 74be 9b1c e9be 8cb0 c23e a984 02bf
000002a0: c2b4 c23e 077c 02bf 7757 053f 43aa 2abe
000002b0: 8206 d6be f5d4 33bf e9b1 933e 9271 ba3d
000002c0: df66 04be bb23 97be af3b fd3e 5c31 10be
000002d0: 595a 1b3f 9139 47be 1c59 1b3f 0b34 47be
000002e0: 2501 263f e3ce 77be 8fd3 333e 26d3 5ebe
000002f0: 88a1 f93e 243b 293d feef c23e c75d a8bd
00000300: e300 7ebe b861 c9be 1f8f 593f 5ba8 b3bd
00000310: 4dde bf3e a0b7 ddbd 80ff 3cbe 51c8 c0be
00000320: a322 813e 9c2f a8bb ab2a 473f 10e4 eabd
00000330: 19e9 903f 453b a03e a2f3 8c3f 461b 8e3e
00000340: a698 d23e 9c38 84bd d249 c23e b470 f93d
00000350: bd16 6cbd 21b7 b3be 903e ef3d fd7e a5bd
00000360: 7eb2 3d3f e519 98be 61a3 dc3e 15f6 aebe
00000370: 4203 6dbe 41c2 a5be ee9b 513e 775a 18be
00000380: ddbe 073f 7125 c63d 4289 043f 7095 63be
00000390: e8bb c03e 2d7a 4e3e 4e5a 1b3f cc29 47be
000003a0: e6c9 003f e273 62be e34d 4abe c729 e9be
000003b0: 99c9 ef3d 72f0 67bd b6e6 863e 4591 67be
000003c0: f285 903e 8082 47be 2910 0d3e 7bf7 30bf
000003d0: 2a25 0d3e 7bf1 30bf 0018 0d3e b2f7 30bf
000003e0: 74ed af3e ad83 0bbf 4010 0d3e c64a 2ebf
000003f0: 2cb3 1c3e 298f 20bf d59d 183e 2b4c 32bf
0.21456563 -0.3944246 0.04224165 -0.43681672 0.19802116 -0.18644513 0.17520198 -0.45013565
-0.0089427335 -0.46606225 -0.25409606 -0.6141826 0.028812058 -0.39782307 0.25210902 -0.0762626
0.5195596 0.10476108 -0.029473439 -1.1985556 -0.13969408 -0.6963837 0.31982157 -0.058372106
0.44094875 -0.39397267 0.23161158 -0.46683133 0.13368274 -0.37884876 -0.5287868 -0.9185911
0.8885921 0.16670883 0.44314623 -0.3946432 0.3285699 -0.4099381 -0.42191344 -1.1045854
0.352546 -0.26681235 0.22449946 -0.12308492 -0.25317124 -1.1253573 0.15614855 -0.25056082
1.1051705 0.27789983 0.2529232 -0.14402977 0.023367412 -0.3443573 -0.018372932 -0.40597805
0.44083935 -0.3939374 -0.008789588 -0.23886581 0.08158698 -0.15322386 0.15714869 -0.11787546
0.7543913 -0.02933952 0.97135085 -0.16881707 0.72323835 0.13862434 -0.33246472 -0.91465765
0.1621135 -0.19526593 0.3136404 0.022512468 0.21905048 -0.18709064 0.24891058 -0.3043189
-0.12446513 -0.40175927 0.068305746 -0.33628646 0.56214106 -0.02509482 0.11072097 -0.29573038
0.4291698 -0.048311286 0.16563329 -0.29400337 -0.58887005 -1.297347 0.07744106 -0.2418032
0.13776273 -0.69125813 0.3794824 0.017728565 0.6068807 -0.19450662 0.6067697 -0.19453916
-0.11576482 -0.80435973 0.3861446 -0.28566554 0.33677238 -0.224279 0.38019398 -0.5096018
0.48188642 -0.1361081 0.5538749 -0.06545299 0.26429695 -0.013463265 0.11004413 -0.12386363
0.37219924 -0.15694419 0.13772398 -0.6912765 0.43094322 -0.34178287 -0.23911488 -0.77590317
0.14210483 -0.6920706 0.05076343 -0.19015364 0.1276393 -0.119521536 0.12916188 -0.10467792
0.42771715 0.11845272 0.19081117 -0.16366653 0.3802789 -0.5096468 -0.13015243 -0.48214567
0.040132977 -0.15744108 0.3802748 -0.50967497 0.60685295 -0.1944848 0.6069458 -0.19448258
0.022175021 -0.26717734 -0.17857671 -0.5771405 -0.56894 -0.7350334 0.28748253 0.13676693
0.13771348 -0.6912579 0.38020477 -0.5098372 -0.2388079 -0.45529637 0.3802532 -0.50983673
0.38028532 -0.509705 0.52086586 -0.16666512 -0.4180184 -0.7024682 0.28846672 0.09103693
-0.12929867 -0.29519448 0.49459597 -0.14081329 0.60684735 -0.19455554 0.60682845 -0.19453447
0.64845496 -0.24200015 0.17561172 -0.21760234 0.4875605 0.041316167 0.38073725 -0.082210116
-0.24805026 -0.39332366 0.8498401 -0.08772346 0.3747429 -0.10826039 -0.1845684 -0.3765283
0.25221738 -0.0051326286 0.7779948 -0.11469281 1.1321136 0.3129522 1.1011851 0.27755183
0.41132087 -0.0645611 0.37946945 0.121796995 -0.057638872 -0.35100654 0.11681855 -0.08080862
0.7410048 -0.29707256 0.43093398 -0.3417212 -0.23145774 -0.32374766 0.20469639 -0.1487826
0.5302561 0.0967511 0.5177194 -0.22224975 0.3764336 0.20163794 0.6068467 -0.19449538
0.5030807 -0.22114518 -0.19756274 -0.45539686 0.117083736 -0.05662579 0.26347893 -0.2261401
0.28227192 -0.19483376 0.13775696 -0.69127625 0.13783708 -0.6911847 0.13778687 -0.69127953
0.3436085 -0.54497796 0.1377573 -0.68082845 0.15302724 -0.62718445 0.14903958 -0.69647473

encoder.dcrnn_cells.0.gate.weights_pool f4 [2, 65, 128]
00000000: 8137 39bf ac0c 833d ac5b 973d 9f2c d8be
00000010: 480b 89be 9a74 3ebe 2ed4 19be 0a40 49bf
00000020: d544 b93e fc3d c6bd 5c05 f23a 1a00 17bf
00000030: 6381 513e 39f8 36bf fe35 84bd e76c a5be
00000040: 2849 03bf 67e7 cfbd 8918 d33d 55dd cabe
00000050: 510f 87be a900 c2be 4d7e b2bf d594 dbbd
00000060: e143 04bf 1106 99bf 10f5 1bbf bdb0 44be
00000070: a14c 3dbe 0e7e efbe 7485 c2be ed0b cabe
00000080: b3c7 29bf 9fcf 5d3e fe56 8ebd 0b93 363e
00000090: 0528 7cbe 5bfe a1be 1fa6 1bbe a722 303f
000000a0: 377a 44be f80f b23d facb d63e 822a f5be
000000b0: 3e1e 54be e933 10bf fb40 18bf 0e70 823d
000000c0: 33a2 013e 8837 e1be 29f4 d7be 2841 bd3e
000000d0: ba07 2cbe c859 f8be baf5 58be eb1c fabd
000000e0: 6b1f 483e a42f 50bc 6ffb dfbe 1f87 f2be
000000f0: 8793 9fbc 17c9 91bc 1f70 9cbf ef60 6dbf
00000100: 5409 3dbf 704e 003e ab82 7cbe 9fb4 d0be
00000110: 7f7c 8a3c 8833 853b b8a3 eb3d ff4c 6d3e
00000120: 8c50 14be d666 063f fe63 773d 9eb4 693c
00000130: 5092 8f3e cc4f 8e3e f7e9 613c e040 c6be
00000140: 1fe2 90be e3ef 1dbe 3949 953c 45af 98bf
00000150: ef02 453e 51f1 f73e ad8a 813e d5de 41bf
00000160: e669 973e db52 eebd 124c ab3e 2cf5 2f3e
00000170: ae71 d13e 0eb0 babe 1712 e03e a2ca 94bb
00000180: 30c9 62be 2afb 563e 26b2 833d 8867 3c3e
00000190: 7578 61bc d438 40be 3e36 793d 30ae 7e3e
000001a0: f5df 2a3e 7e78 06be f507 a43e 8f09 b83e
000001b0: c590 173f 2456 62be 04a1 a5bf 0957 cf3e
000001c0: 6699 b53e c6a6 e6be ed51 15be bd75 fc3e
000001d0: eec2 df3e b209 6a3e 9578 8dbe 3d3a 2bbe
000001e0: 0016 ca3e dd12 9bbe 9d74 083f bdec 80bf
000001f0: 49b1 113f bcea 62be 83f9 ff3e 88c8 1b3e
00000200: 5fb7 1e3f 9dd8 e23e 0453 a8bd 0d46 293e
00000210: d7c5 5cbe 359c 7b3e 37ed c13a 8576 bdbd
00000220: 0556 213e 7d81 89be 3627 6b3e 1c90 08bf
00000230: 6235 b6bf be4e ea3e 9c49 2cbf 9939 57bd
00000240: f6fb 8bbd c553 5fbe 88a7 18be 0f62 aabd
00000250: aac7 033d ef2b 9f3e 30ca 90be 0913 ab3d
00000260: 857b 503d cb41 a43d bc6c 20bf 2056 f53e
00000270: 3d45 b23e 9d13 383d 8f08 1bbf 980d ff3e
00000280: 7c4e 443f 2275 f73e 7044 763d 541e c1be
00000290: 1aba 683d 1d4b 483e 838a 563e 3af5 873e
000002a0: baf0 0a3f 007b bd3e 5b8b 4bbf bdbd 3cbe
000002b0: 650f b0be b280 db3e d586 36bf 6b82 053f
000002c0: c5b1 3b3f 46d0 3bbe 1cf9 5e3d 2c14 063f
000002d0: 923c bb3e 4941 6c3e 114f 0bbf d77b ab3e
000002e0: f6d3 aebd 21d3 c8be 059d 7f3c f7a4 ac3e
000002f0: d0ca 4d3d 0c0f d43e 3e6c d6be 59f9 be3f
00000300: d41e b6bc d621 c8be 2485 46be 4781 0ebe
00000310: 25a2 a4be 4ebc 0abe d0b5 7d3e 215f c4be
00000320: eec6 0e3f 73fd 093f 2e77 29be 879f acbe
00000330: 588c f73d c5d5 d7bd de9a 41be e758 3e3e
00000340: 18ba 8a3c a323 70be 4850 d03d 1e3c babe
00000350: 116c b6bc 0910 893b a476 10bf 4437 e8be
00000360: 4a9a a5bc 3f2d b5bd 8fa6 843e dd41 10bf
00000370: cd8d 29be 9c9f 563e ec26 91bc 6ab2 f73d
00000380: d5bf 983d f191 753e c48b debe d5fb 393e
00000390: e7a0 8cbd 2bcd 2d3e 4afb 08be 38fc 6bbe
000003a0: 39be f0bd dc2d 3ebe 4860 20bf d610 08be
000003b0: bf36 ac3e 1c90 e33e 138a 08bf efc0 1abd
000003c0: 13a2 11be 6f06 1ebf 7ab2 f7bd 6d8b c3be
000003d0: 4696 b13e fe69 52be 6069 eabe 2733 33bd
000003e0: f22e adbe efeb 91bc f026 88be b300 7ebd
000003f0: ed29 8f3e 7ea2 4ebe 5602 01be 663d 01be
-0.7235032 0.06398901 0.07390532 -0.42221543 -0.2676642 -0.18599167 -0.15022346 -0.7861334
0.36185327 -0.09679791 0.0018464732 -0.5898453 0.20459513 -0.7147251 -0.06455611 -0.32309648
-0.512835 -0.10151558 0.10307414 -0.39621988 -0.26378873 -0.3789113 -1.3944794 -0.10721747
-0.51666075 -1.1954976 -0.6092081 -0.19208045 -0.18486263 -0.4677586 -0.37992442 -0.39462224
-0.6632034 0.21661232 -0.06950186 0.1782953 -0.24624641 -0.3163937 -0.15200089 0.68802875
-0.19187246 0.08694452 0.41952497 -0.47883993 -0.20714661 -0.5632921 -0.5947415 0.06369029
0.1265953 -0.4398768 -0.42178467 0.36963773 -0.16799822 -0.48505998 -0.21187487 -0.12212547
0.19543235 -0.012706671 -0.43746516 -0.47368714 -0.019479526 -0.017796082 -1.2221717 -0.92726034
-0.7384236 0.12529922 -0.24659221 -0.40762803 0.016905067 0.004064981 0.11505836 0.23173903
-0.14483851 0.52500665 0.060398094 0.014264254 0.28041315 0.27795255 0.013788692 -0.3872137
-0.28297517 -0.15423541 0.018223392 -1.1928488 0.192394 0.48426297 0.25301114 -0.7573064
0.29572982 -0.11636897 0.33456475 0.1718337 0.40907043 -0.36462444 0.437638 -0.0045407573
-0.2214706 0.20994249 0.064304635 0.18398869 -0.013761629 -0.18771678 0.060842745 0.24871135
0.16686995 -0.13131902 0.3203732 0.35944793 0.59205276 -0.22103173 -1.2939763 0.4049609
0.35468596 -0.45049113 -0.14582033 0.49308577 0.43703407 0.22855261 -0.2763106 -0.16721435
0.3946991 -0.3028783 0.5330294 -1.0072247 0.5691114 -0.22159857 0.4999505 0.15213215
0.6199855 0.44305888 -0.08218959 0.16530629 -0.21559845 0.24571307 0.0014795427 -0.092511214
0.1575547 -0.26856604 0.22964177 -0.53344893 -1.4235041 0.457632 -0.6729982 -0.052545164
-0.06835167 -0.218093 -0.14907658 -0.083194844 0.032172836 0.31088206 -0.28279257 0.0835324
0.050899047 0.080203615 -0.62665915 0.4791727 0.3481845 0.04494058 -0.60559934 0.4981506
0.7668226 0.48331553 0.06012386 -0.3771845 0.056818105 0.19559903 0.20951276 0.2655428
0.5427357 0.37007904 -0.79509515 -0.18431754 -0.34386745 0.42871624 -0.7129949 0.5215213
0.7331813 -0.18341169 0.054436788 0.5237453 0.3656965 0.2307178 -0.5441752 0.3349292
-0.08536522 -0.3922358 0.015601401 0.33719608 0.050242245 0.4141773 -0.41879457 1.4919845
-0.022231497 -0.39088315 -0.19386727 -0.13916503 -0.32154956 -0.13548395 0.24776387 -0.38353828
0.5577229 0.5390236 -0.1654937 -0.3371546 0.12087315 -0.1053882 -0.18906733 0.18588601
0.01693444 -0.23451094 0.101715624 -0.3637399 -0.022268327 0.0041828197 -0.5643103 -0.45354664
-0.020215172 -0.08846521 0.25908324 -0.563505 -0.16557999 0.20959324 -0.017718755 0.12094577
0.07458464 0.23981453 -0.43466008 0.18162473 -0.06866627 0.16972797 -0.13377109 -0.23045433
-0.11755032 -0.18572181 -0.62646914 -0.13287672 0.33635518 0.44445884 -0.53335685 -0.037781652
-0.14221983 -0.61728567 -0.120945886 -0.3819231 0.34684962 -0.20548245 -0.4578352 -0.043749955
-0.3382488 -0.017812697 -0.26592207 -0.062012386 0.27961674 -0.20179173 -0.12598547 -0.12621078

encoder.dcrnn_cells.0.gate.bias_pool f4 [2, 128]
00000000: b4a8 0c3f 539b aabe 6edf 4e3d fbeb b93b
00000010: 3555 723e d853 bf3e b587 363e 8be5 323e
00000020: 9426 a43e e33d df3d 92ff b53e f6fa 313d
00000030: 9352 473e 79d4 cd3d 3be6 173e 7a65 b33d
00000040: b810 a23d 843e d5bd 272b a13e 40c6 9c3e
00000050: fb31 863e eb2f 7abe e8c3 973e 9e5c 86be
00000060: 337b 31bd ed54 ed3e e445 f63c c843 db3e
00000070: a98e 1d3f 0711 693e 9fa1 dabe bd1f fa3e
00000080: 9275 e23e edba 4a3e 7634 753e 5ed8 debc
00000090: 7f0d 49be d320 86bf 3dbd 16bb fa19 febd
000000a0: e5fd 073f da05 fb3e 92af f4be cc29 02bb
000000b0: f881 483d 8aa9 4b3f 1ec2 09bf c25d 133f
000000c0: 3f25 c5bd 5773 70be bd7d 353f 2df5 ca3e
000000d0: abb7 2c3f 7dac e43d c2c9 5e3d e830 dfbe
000000e0: 1657 603e 295b 1b3d 09c4 ed3e 2614 e13e
000000f0: 1619 f13e 963a ec3d 836f 08be 2517 a23f
00000100: e50d c83d 8745 43be 1c5a 65be 5e3f 1bbf
00000110: a09b 1fbe 8ffc 7fbe 27a1 a0be 0707 21bf
00000120: 46dc c2bd a3e4 8dbe cbac 433e b94a 0fbf
00000130: ba0d 16be e479 583e 47a8 75be 674a 4cbd
00000140: c50a debd 48c6 0bbe 41c9 3fbd 1301 e0be
00000150: f81a d1be d7b6 4cbe 75fe 30bf 9162 0ebe
00000160: bac5 a3bc abd5 aebd 0b95 f7bd a34f 1cbe
00000170: ea3e 31be da7d 84be cd03 903c 7118 dd3e
00000180: d445 863c afbf 8f3d 58d7 5bbe 7619 16bf
00000190: f7ff 19be 15be f8bd 8a56 84be acbc bfbe
000001a0: 6948 debe 90b1 1fbf e0a9 1abf a686 d0be
000001b0: f1df 05bf 6386 80bd 5ef8 7dbf 4a24 cf3d
000001c0: c22a 953d e751 04bf b64d 03bf 0fa8 133d
000001d0: 52bd fcbd 7660 73be 16f0 00bf 8320 aabe
000001e0: 5ef3 4dbe e192 15be 72a1 a73d 4d27 30be
000001f0: 6a92 18be c05d 913e 9939 0abf c9e8 9fbd
00000200: c6e3 b0be 6fe9 39bf b9ef 7c3d 3a51 803e
00000210: 3a22 06bf 7558 14bf 2724 11be 781f 91be
00000220: 558d 10be c4d8 f9be 7201 c0be fa3b b23d
00000230: c4fb c33c edd6 643d c67d 393d 6846 90bf
00000240: b45f 5fbf 70e9 5d3e d4a5 473d 47c1 03bf
00000250: 861b 57bf 272d d4be 3804 e0be cf03 a03e
00000260: 4396 21bd df64 18bf 71bb 77bf ab8c a4be
00000270: 3b2a 5fbf 0f5f 1bbf 4d2d d33d 669e bb3d
00000280: aebe b1be 3228 1ebe c81c 6ebf 904a 723e
00000290: 4237 7b3d 2063 a03e 6927 6cbf 3dda 26bf
000002a0: 11c5 b63e 3eb1 5bbe 58ce 223f 2a89 fbbe
000002b0: 119c 5cbf 5202 84bf 7e71 b4be 09c2 5cbf
000002c0: 91ef f5bd 5378 c8be 2d47 21bf 085b e8be
000002d0: 0f40 1cbf 9231 34bf 232b c1be 60ea 063d
000002e0: 90ea 5abe ba7f 63be 3b38 70be 5389 24bf
000002f0: e60b 84be d33b e9be 4840 693f 3176 b0be
00000300: 0b6f 52be e2fb 303e e08a 20bd 115e 1e3e
00000310: 41d0 f43e d6a9 8b3e 46bf 363f beaf c53f
00000320: 298f d53e bafb 4e3f d7fc 95be a4c5 a13e
00000330: 984c 843e d5ed 4d3f fb81 e23e a531 96bb
00000340: d541 a2be fd17 c53e e57d 1b3f 7bff 7bbb
00000350: 7daf 323f edb2 f83e ca90 953e fbc6 673f
00000360: 0f11 b8bd edf2 653e 49f8 c63e fbfa e83e
00000370: de3a 573e 3654 bb3d 83f4 8c3e 4ee4 de3e
00000380: 1c16 0d3f d85a c53c 8128 1d3f add8 e43d
00000390: 0055 d23d d42a 593c 3e7f 973c d3aa 05bc
000003a0: 324d 263f 5897 403e 41cf 83be 967f 0abe
000003b0: 5d7a 433f 1aae 6b3f cea0 023f d27d c13e
000003c0: 6b4c 25be 193b 423f b118 a33e a463 34be
000003d0: 2164 293f 0b8e 7b3e f11d 803e 64f4 08be
000003e0: 0cbb e03e 7216 303d 55a5 a33e 5741 973d
000003f0: 9ee4 673e c07e 17be 6b63 fa3e 6a59 423f
0.5494492 -0.33321628 0.050506048 0.005673883 0.23665316 0.37368655 0.17825206 0.17470376
0.32060683 0.10900476 0.35546547 0.043452226 0.19465093 0.100502916 0.1483392 0.087595895
0.07913345 -0.104123145 0.31478235 0.30620003 0.26210007 -0.24432342 0.29641652 -0.26242536
-0.043330383 0.46353856 0.030062623 0.4282515 0.6154581 0.22760402 -0.42701432 0.4885234
0.44230324 0.19797869 0.23945794 -0.027202781 -0.19634055 -1.0478767 -0.0023000978 -0.124072984
0.5312179 0.49027902 -0.477902 -0.0019861339 0.048952073 0.7955557 -0.53811824 0.5756494
-0.09626245 -0.23481499 0.70894986 0.3964018 0.67467755 0.11165712 0.05439163 -0.43592
0.2190822 0.037928734 0.46438625 0.43960685 0.47089452 0.11534612 -0.13323788 1.2663313
0.09768275 -0.19069491 -0.22397655 -0.60643566 -0.1558671 -0.24998687 -0.3137295 -0.6290135
-0.0951467 -0.27713498 0.19108884 -0.5597339 -0.14653674 0.21140248 -0.23989974 -0.049875643
-0.10841898 -0.13649857 -0.04682279 -0.4375082 -0.40840888 -0.19991623 -0.6913827 -0.13904788
-0.019991744 -0.08536848 -0.120889746 -0.15264754 -0.17309156 -0.25877267 0.017579937 0.4318271
0.016390719 0.070189826 -0.21468866 -0.586326 -0.15039049 -0.1214563 -0.25847274 -0.37448633
-0.4341462 -0.62380314 -0.6041546 -0.4072773 -0.5229483 -0.06275632 -0.99207103 0.101143435
0.07283546 -0.51687473 -0.5129045 0.036048945 -0.123407975 -0.23767266 -0.5036634 -0.3322793
-0.20112368 -0.14606811 0.0818509 -0.17202492 -0.14899603 0.28391838 -0.5399414 -0.07808072
-0.34548777 -0.72621816 0.061752055 0.2506197 -0.52395976 -0.57947475 -0.14173947 -0.2834432
-0.14116414 -0.48798192 -0.37501103 0.08702846 0.023923762 0.05586903 0.045285963 -1.1271486
-0.87255406 0.2167108 0.04874213 -0.5146679 -0.8402637 -0.41440699 -0.4375322 0.31252906
-0.03944994 -0.5952892 -0.9677039 -0.3213857 -0.87173814 -0.6069192 0.10311375 0.091610715
-0.3471579 -0.15445021 -0.93012667 0.23661256 0.061331995 0.31325626 -0.92247635 -0.65176755
0.35697225 -0.21454331 0.63596106 -0.49128085 -0.8617564 -1.0313208 -0.35242838 -0.86233574
-0.12008584 -0.391543 -0.6299923 -0.4538195 -0.61035246 -0.7038814 -0.37728223 0.03293836
-0.21378541 -0.22216693 -0.2345895 -0.6427204 -0.25790328 -0.45553455 0.9111371 -0.34465173
-0.20550172 0.17283586 -0.03919494 0.15465571 0.47815135 0.27278012 0.7138561 1.5444257
0.41710785 0.80852854 -0.29294464 0.315961 0.25839686 0.8044103 0.44239792 -0.004583555
-0.3169085 0.38494864 0.60738975 -0.0038451839 0.69799024 0.4857401 0.29212028 0.90537995
-0.08987629 0.2245595 0.38861302 0.45503983 0.2101855 0.09146921 0.27530298 0.43533558
0.5511186 0.02409117 0.6138993 0.1117414 0.10270119 0.01325484 0.018493291 -0.008158403
0.6496154 0.18807733 -0.2574406 -0.13525233 0.76358587 0.9206253 0.5102662 0.37791306
-0.16142432 0.75871426 0.31854776 -0.17616135 0.6616841 0.24565904 0.25022843 -0.13374478
0.43892705 0.042990156 0.31962076 0.073855095 0.22645804 -0.14794445 0.48903975 0.75917685

encoder.dcrnn_cells.0.gate.linear.weight f4 [128, 65]
00000000: dcd3 ebbe e49e 793e 2840 14bf d46b 67be
00000010: ddcd 3a3d 2bda 23bf 348b 013f 1585 143f
00000020: e8dd f0be ce40 43bd bf92 183f 8d1e 11be
00000030: f1f1 db3d 5740 883e 53b1 1f3e 5b76 153e
00000040: db1b f73d ba9c 0ebe c588 abbe 9ea7 4abe
00000050: be22 4abe 29f9 f03e bd3e 863d ad5b 303c
00000060: 31d4 3d3e b64b 0abe e09f 453d 5f71 fdbd
00000070: 2f6f 2c3f d7b9 233e cb09 603f 5f3a 7d3d
00000080: fc13 4cbe 884f bbbc 819f 653e d7ee d1be
00000090: 217d a5be 04d9 aa3d dd0d 51be d18b 3a3f
000000a0: df5e a53e 4a68 ae3d cdd6 a2be a031 1fbe
000000b0: ca52 c83d b306 593d 921b 1e3f 9297 9b3d
000000c0: d457 d83e da41 943e 4ac6 c93e 3aee 473f
000000d0: e027 2a3e d1ac 993e 1ea7 a7bb e276 053e
000000e0: 462c c53e 204c 34be 1336 d4be a410 3e3e
000000f0: 0940 d13e d252 e63d b3b4 a2be 568d 15bb
00000100: 1a58 643e db31 cb3e 73cc d63e a663 8cbd
00000110: 556c 56bd 7b7e 013e 7e70 86be e9b2 2a3f
00000120: 1e86 a63e 0fdb 30bf 8769 e43e f880 653e
00000130: bd48 843f f7d9 7ebe 9658 a7be 6268 2ebf
00000140: 774c 913e e061 873e e51e 3cbe c617 153f
00000150: 1de0 36be 651c e0bd dc72 fa3e 3187 343f
00000160: 5365 67bd cdc4 893e 62f2 aabe a7dc b73e
00000170: b896 253f 74bd abbd c755 1a3f c06c b33e
00000180: 3bbc 453f ee62 893e 6b56 f63c 36da ad3e
00000190: 999f 683e ef24 6e3e f975 ac3d 3889 08be
000001a0: 1fb3 d93e 3f89 10be f55d 22be 5caf dcbc
000001b0: e110 c4bd f38c a63e 544a 793e 521b 0d3f
000001c0: 1f80 45be cc85 8abd f4f8 4bbe e2a7 55be
000001d0: f246 b23d bd96 98be 5e53 703e 1bb9 d53e
000001e0: cff5 a03e e5c8 ee3f f998 97be cc9f ee3d
000001f0: 4260 debe 339e 383f 028a 41be e914 c3be
00000200: eac7 313d 1060 98bd 5d3d e43e acdf 21bf
00000210: c5f0 a3be cc2e 35bf 57f2 163f d1d0 6a3f
00000220: e944 c8bc 9cd9 eabe 4b40 f33e 3057 9e3e
00000230: ba50 833c 03dc 3cbf 94af cb3e 2666 b93f
00000240: d285 653f cd9b 8dbe ff89 9abd a83b e43e
00000250: 4343 2a3f cebd 9ebd 8c47 4a3e da5e c93e
00000260: 6a0f 68bf 876d 0dbf 681b a63e 6a7f 1bbe
00000270: d639 6abf acc5 05bf aa19 7e3e d77f ba3d
00000280: bbe4 f1be bcf2 363f 9bbe 3fbd 9fb0 a2be
00000290: 383a 01bd f9b0 fdbd 8425 6f3e 6df8 a0bb
000002a0: c6a5 b23e b85c c83e a6a1 883f f733 173f
000002b0: 6476 e43e 7599 b23e 3aa5 203f 783c e03e
000002c0: 1410 513e 3706 f8be 5a24 ed3e 4be9 4d3e
000002d0: 9b47 033e a179 153e cea1 3c3f 9f31 7e3f
000002e0: 724c 31bf a1c8 2a3f cdb6 213e 81d7 723f
000002f0: 2811 3c3f 4ce9 dfbe 17c9 a2be 3fd6 1cbf
00000300: 0c0f edbe 7223 183f 7c3b 863f c99d 92bf
00000310: 424f 663e 1260 a0be b9f6 3fbd acfb f6be
00000320: 84d3 bc3e 5226 61be 0f35 b53d 7718 4fbc
00000330: 4b8a 893d ea74 06bf ed81 1dbf 2128 813d
00000340: ebbd a7be 0de8 c8bf f60d 90bd d9b4 9e3d
00000350: 5cd4 53be 16ed 65bf 00a5 97bf 98f7 5e3e
00000360: 0cab 8e3d fe24 72be 9484 253f 7cea 1f3f
00000370: d3b6 03be 7965 95bd 3b45 7ebe c04d 1ebf
00000380: 75ec 373f 0c9e 07be 49ca e63e 8b23 0f3f
00000390: eb21 4ebe 8adb 5ebf 5ae0 3e3f 7425 e0be
000003a0: cf4d 96bd c234 683e cff0 9c3e 8897 0bbf
000003b0: efeb e63c e3f2 88be 6531 2b3f 40cc ef3e
000003c0: 6f80 bf3e abf3 59bf 7477 1f3f f193 a3bf
000003d0: ed90 4abf 162f ea3e fbfe dabe da73 7dbe
000003e0: 6967 e6bd b192 b13e 490e 22bf 57e3 78bf
000003f0: dd75 b6be b864 033d fe05 40bf 1412 00be
-0.46060073 0.24377018 -0.57910395 -0.22599727 0.045606483 -0.6400477 0.5060303 0.5801557
-0.470443 -0.047669224 0.59598917 -0.1417181 0.10739506 0.26611587 0.15594988 0.1459593
0.1206586 -0.13926974 -0.33502784 -0.19790503 -0.19739816 0.47065094 0.06554935 0.010764045
0.18537976 -0.13505444 0.04824817 -0.123751394 0.6735715 0.15988861 0.8751494 0.061823245
-0.19929498 -0.022865072 0.22424127 -0.41002533 -0.32322028 0.08342174 -0.20415445 0.7286959
0.32298943 0.08515985 -0.31804505 -0.15546274 0.09781416 0.052984904 0.6176082 0.07597269
0.42254508 0.2895649 0.39409095 0.7809788 0.16616774 0.3001466 -0.0051163575 0.13033631
0.3851034 -0.17607164 -0.41447505 0.18561035 0.40869167 0.112462655 -0.31778488 -0.0022819838
0.22299233 0.39686474 0.41952857 -0.06854944 -0.052349407 0.12645905 -0.262577 0.66679245
0.32524198 -0.69084257 0.4461176 0.22412479 1.0334698 -0.24887834 -0.32684773 -0.68128026
0.2837865 0.2644186 -0.1837116 0.582394 -0.1785893 -0.10942916 0.48915756 0.70518786
-0.056493115 0.2690796 -0.33388048 0.35910532 0.64683104 -0.08385745 0.60287136 0.35043907
0.7724034 0.2683329 0.030070504 0.33955544 0.22717132 0.23256277 0.08420939 -0.13333595
0.4251947 -0.14114855 -0.15856154 -0.026939087 -0.09573532 0.3252941 0.2434476 0.5511981
-0.19287156 -0.06763801 -0.19919187 -0.20864823 0.08704938 -0.29802504 0.23469302 0.41742787
0.31437537 1.8655058 -0.29608896 0.116515726 -0.43432814 0.7211639 -0.18900302 -0.3810189
0.043403544 -0.074401975 0.44578066 -0.6323192 -0.3201963 -0.7077453 0.5896353 0.9172488
-0.024446921 -0.45869148 0.4750999 0.30925894 0.016029704 -0.7377321 0.39782393 1.4484298
0.8965732 -0.2765793 -0.07545852 0.44576764 0.66508883 -0.07751046 0.19753855 0.39330178
-0.9064852 -0.5524525 0.32442784 -0.15185323 -0.914945 -0.5225475 0.24814478 0.09106415
-0.4724482 0.71464133 -0.046812635 -0.31775376 -0.031549662 -0.123872705 0.23354155 -0.004912427
0.348921 0.3913324 1.0674331 0.5906367 0.44621575 0.34882703 0.62752116 0.43796134
0.2041629 -0.48442242 0.46316797 0.20108525 0.12820284 0.14597179 0.73684394 0.99294466
-0.6925727 0.66712385 0.15792389 0.9486008 0.7346368 -0.4373268 -0.31794044 -0.61264414
-0.46300542 0.59429085 1.0486903 -1.1454402 0.22491172 -0.31323296 -0.046866152 -0.48238885
0.36880124 -0.21987274 0.08848011 -0.01264011 0.067158304 -0.52522147 -0.61526376 0.06306482
-0.32762083 -1.5695816 -0.07033913 0.07749338 -0.20686477 -0.8981489 -1.1847229 0.21774137
0.06966218 -0.23646924 0.64655423 0.6246717 -0.1286271 -0.07294745 -0.24831097 -0.6183739
0.7184518 -0.13243884 0.45076206 0.5591361 -0.20130126 -0.8705374 0.74561083 -0.43778574
-0.073390596 0.22676376 0.30652472 -0.54528093 0.028188674 -0.26747808 0.66872245 0.46835518
0.37402675 -0.8513743 0.62291646 -1.2779523 -0.7912739 0.4573905 -0.4277266 -0.24751225
-0.11250193 0.3468223 -0.6330305 -0.97221893 -0.35636798 0.032078475 -0.75009143 -0.12506896

encoder.dcrnn_cells.0.gate.linear.bias f4 [128]
00000000: b4b4 233f 4e0b 603f 7912 0c3e 335e 073d
00000010: 2b2e 673f 550d cd3f b350 243f 03f2 ec3d
00000020: 548d 943f 7ddb 343f 2239 233f 2556 583f
00000030: 0701 ae3f 45b7 933f cf48 2a3f 0be8 d93f
00000040: c24a a43f faae eb3e b053 42be b8f5 973f
00000050: 9a61 1c3f 029c 813f 01d4 c73f 1eac 813e
00000060: 059f 0e3c 05a3 9b3f a1dd bf3f 275f 4e3f
00000070: 64d2 b93f cfc8 7b3f 311b ad3f 4abb 633d
00000080: 7ef1 2b3f 5bb8 403f e018 9e3f f36c 833f
00000090: 326c fd3e efd4 8c3d 5be7 653f e74e 4e3f
000000a0: b492 f63e 4ea8 963d 45c9 c03c f398 033f
000000b0: bb3d be3f cb8b b23f c890 3c3f 71f2 ca3f
000000c0: 1596 5a3f 1c78 7e3f 9469 433f b857 713f
000000d0: 8b83 693f 0c52 cb3f 6865 733f bb4d 183f
000000e0: d227 3b3f 3a43 863f d28e 883f 7332 b63f
000000f0: cc47 d23f 9e8c c63e 2581 ddbd 8763 0640
00000100: 04a6 073f cfd7 ff3c 0fee fc3e b125 07bd
00000110: 4108 c33e 4087 d53e bf9d bb3e 3891 e53e
00000120: efff 2bbe 5520 4f3e 9ce4 943f 334a 4fbf
00000130: 24c3 a63e b9dd 873d 62ca c8be 5030 ae3e
00000140: b7a9 ca3e b50b bd3e 3c0f 0f3f fcbd 743e
00000150: e2cf 443d fd8d 23bf b9f4 3f3c 3806 48bd
00000160: 098b 973d d680 b73c c563 013f 72a8 c43e
00000170: 87cb f6be 29f2 163f 10e0 2e3f 78c1 043f
00000180: 8429 2c3f 0536 de3e e2be 1d3e bb2d 313e
00000190: b544 183d bf98 733d 3925 663e 574f 923e
000001a0: d9d5 303e f56b 6f3d a0c1 b73e e3ab 2fbe
000001b0: d680 633e 4a8d e43b 9d75 c23d c659 373f
000001c0: ac68 963f 1a7e 08bf d6dd 4abe 21f1 923e
000001d0: ac9f f63e 8264 2b3e e8da 783e 0287 f73d
000001e0: fbbd 913e da68 0c3f d55e ebbd 98d1 633f
000001f0: b52d 3a3f 4f5a cb3e 2f24 8fbe 5d07 b23e
0.63947606 0.8751725 0.13678922 0.03304882 0.9030482 1.6019694 0.6418564 0.115695976
1.160563 0.7064741 0.6375905 0.84506446 1.3594064 1.1540304 0.6651735 1.7023939
1.2835314 0.46031934 -0.18977237 1.1871862 0.6108643 1.0125735 1.5611573 0.25326627
0.008704905 1.2159125 1.4989511 0.8061394 1.4517331 0.98353285 1.3523923 0.055598535
0.6716536 0.75281304 1.2351341 1.0267624 0.4949661 0.06876551 0.89806145 0.80589145
0.481588 0.0735632 0.023533473 0.51405257 1.4862589 1.3948911 0.7365842 1.5855237
0.85385257 0.9940202 0.76332974 0.94274473 0.91216344 1.5884414 0.9507661 0.5949361
0.73107636 1.0489266 1.0668585 1.4234146 1.6428161 0.38779157 -0.10815648 2.0998247
0.52987695 0.031230835 0.49400374 -0.03299493 0.38092235 0.4170475 0.36643788 0.44837356
-0.1679685 0.20227177 1.1632266 -0.80972594 0.32570755 0.06634087 -0.39216906 0.34021235
0.39582607 0.36922994 0.5588262 0.23900598 0.048049815 -0.6388853 0.011716061 -0.048834056
0.07399566 0.022400301 0.5054286 0.38409764 -0.48202154 0.5896326 0.6831064 0.5185771
0.6725085 0.4340059 0.15404847 0.17302601 0.0371749 0.059471842 0.22475137 0.28576156
0.17269076 0.058452565 0.35889912 -0.17155413 0.22217116 0.006974851 0.09495089 0.7162136
1.1750693 -0.53317416 -0.19811186 0.28699592 0.48168695 0.1673756 0.24302256 0.120862976
0.28465256 0.5484749 -0.11492697 0.8899169 0.72725993 0.39717337 -0.27957293 0.34771243

encoder.dcrnn_cells.0.update.weights_pool f4 [2, 65, 64]
00000000: 268a 043f 08c3 27be fd8f 9d3e 3d2d b23e
00000010: ba0f 6ebe e445 60be 9485 70be 832a 063e
00000020: 91fb 803e 48d9 1cbd dbd4 83bd 3368 093e
00000030: 6a53 ee3e b28d c33d 42ce 2ebf 1db0 33bd
00000040: 3fd6 723e be42 933e 74cf 84be fa41 bd3d
00000050: ec64 43bf fb2a f5bd 81d4 97be d0d9 d23e
00000060: ad38 42bd aace f0bd bf8c 9fbe 25b7 6ebe
00000070: 76ea acbd 1eb5 0cbe f7df 9f3e 9281 02be
00000080: 1628 593e 77d9 6c3e 9df9 c0bd f4ed 6f3e
00000090: 7a27 7b3e 0ddf 7d3c fd8f d3bd 3ce2 b83d
000000a0: 0697 043f f62e 9c3e 522e ec3e 9587 893e
000000b0: 2cef d93e 8d9d bbbe 5ab7 933e e230 223e
000000c0: c55d 2abf 3b92 2abd 7d99 d6bd 7901 34be
000000d0: 96cc 44be 4226 52bd 6cb4 e63e 8b57 99be
000000e0: 2fd7 0b3e 1b64 7c3e 115f ef3c a300 c53e
000000f0: d69f 24be e90f 943e 814a 1d3f 07dc c6bb
00000100: 1769 3fbe 01b8 4abe 41b5 c3be 0974 b5be
00000110: ff20 17bd f259 e4be e5ee 463d a2da 66be
00000120: e78d c2be 3401 9bbc 41cb 71be c278 02bf
00000130: 6546 abbe 2148 7cbd c67e 1dbe 313f 093d
00000140: 8d8e 6cbe 0595 e83d 4d86 a03c 1be4 d3be
00000150: eb71 33be 17ee b1bc aa45 b2bd 2217 a6be
00000160: 2824 093d 2660 b0ba d454 cabc 8bbd 8bbe
00000170: 4bef ffbe 59a8 5abd 6883 163e 136a 873d
00000180: ced5 39be fad9 b4bc cbe0 5a3e a8c6 51be
00000190: 05aa b8be b6c7 173d 6d63 033d 118c b6bd
000001a0: 1d20 d5be 4e27 10be 2b20 30bc 7e9b 95b7
000001b0: 7f2b b7be fdbe 1abc 335d 6ebe d5ec 32be
000001c0: 68a8 563d dff1 af3d 1689 efbe 16be 5abc
000001d0: a70b d4bc e90f b1be dc15 89bd 7dd2 d3be
000001e0: 479c 3fbd 7f5e b4be b307 bb3e 18bc 9fbe
000001f0: 2d1d 13be 3ae0 c73e 9c17 943d 5ef1 533f
00000200: 219a 5f3e f193 a8be e538 b3bc 6113 b93d
00000210: 61ab 9b3e 1d6e c23e 667f 293e 9b87 993e
00000220: f73f 90bd 0cc4 67bc fe0d 8f3e a88e 203e
00000230: cd2d 083e 8543 493f 90b9 773e a598 253f
00000240: 6927 b2bd fbbc 8f3e 7158 3e3d 860e c6be
00000250: b74c 513e be9a 39bd 1b87 bfbd 8fc9 54bd
00000260: 5957 413e 1fdb 503e 1d73 ce3c df9f 0ebe
00000270: 4ae2 233f cac2 0e3e 0121 2a3e 3942 1dbf
00000280: 31fc eb3e d91d e5be 866f 803e 6d7b 2dbe
00000290: 5826 933d 7b97 59be b82d c13d 450a 9a3e
000002a0: 5e4c 23be b361 c93c e4a4 f73e 8e67 07be
000002b0: e72d 543e eada 0c3f 9b6f 7b3c 0f0c 8ebe
000002c0: 5ce2 283e 387e e23e cdd0 32be ccec 58bd
000002d0: 77e3 a3bc 20ea ce3e f77f 57bd 440a aa3e
000002e0: e8af 47be 3ab6 0fbf 1d3f 383e ef51 a3bf
000002f0: 203a 22bf 868d 0cbf 3dfc 533d 640d c03c
00000300: 900e ae3e e895 703d 1e00 04be 4ba0 743e
00000310: dc2a 98bf b33f c13e 5511 38be bcd0 02bf
00000320: 8550 1a3d 9cad a13d 930c c43e bada 663e
00000330: 5dc2 9abe 3dfc da3e 308e 343e b96a 193f
00000340: 294a 4bbe 97be 823e 9d1a f33e b674 86be
00000350: 55e7 073e 9ffe b7be 1b43 ae3e 8224 803c
00000360: d8b2 093e e59d 2b3f 2fb5 113f 2dab 81be
00000370: c893 0e3f ffd8 f53d 3eb0 dabe 5463 aebe
00000380: 22d9 073f 7515 833c 20a2 543e db5b 57be
00000390: 364f 203d 1c16 fe3c feb8 cb3d 8787 a93e
000003a0: d0df debb d163 ab3e d4f8 563f 07be 7bbe
000003b0: 4e09 12be ec17 b83e 15ea 40bd 4e97 1ebe
000003c0: 17da c63e ec84 1c3f 8584 693e 2a2a dabe
000003d0: dc29 113e ff60 3e3c b7a4 80be 42c9 3cbe
000003e0: f459 89be e959 c7bd 98c4 c73d 0507 9c3f
000003f0: d496 67be b651 ec3e 16cd b7be b649 5e3f
0.517733 -0.16382992 0.30773917 0.3480014 -0.23248187 -0.21901661 -0.23488456 0.13102154
0.2519193 -0.038293153 -0.06437083 0.13418655 0.46548015 0.095485106 -0.68283474 -0.043869127
0.23714541 0.28761858 -0.25939524 0.092411 -0.7632587 -0.119710885 -0.29654315 0.41181803
-0.04741733 -0.11758168 -0.31162068 -0.23312052 -0.084431574 -0.13740966 0.3122556 -0.1274474
0.21206698 0.23129831 -0.0942261 0.23430616 0.24526778 0.015495074 -0.10330198 0.09027526
0.51792943 0.30504578 0.4612909 0.26861253 0.42565286 -0.3664364 0.28850824 0.1583896
-0.6654933 -0.041643362 -0.10478494 -0.17578687 -0.19218668 -0.051306017 0.45059526 -0.29949602
0.13656305 0.24647562 0.029220136 0.38477048 -0.16076598 0.28918388 0.6144181 -0.00606871
-0.18692432 -0.19796754 -0.38224223 -0.3544009 -0.036896702 -0.44599873 0.04856767 -0.2254434
-0.37998888 -0.018921472 -0.23612691 -0.5096551 -0.33452144 -0.061592225 -0.15380391 0.03350753
-0.23101254 0.11356548 0.01959529 -0.41384968 -0.17523925 -0.021719975 -0.087046936 -0.32439524
0.033481747 -0.0013456389 -0.024698652 -0.27293047 -0.49987254 -0.053383205 0.14698565 0.06612029
-0.18147966 -0.022076596 0.21374814 -0.20485938 -0.36067215 0.037055694 0.03207724 -0.08913434
-0.41626063 -0.14077494 -0.010749857 -1.783459e-05 -0.35775372 -0.009444949 -0.2327774 -0.17473157
0.0524067 0.08591055 -0.46784276 -0.013350984 -0.025884463 -0.3458245 -0.066936225 -0.41371527
-0.046779897 -0.35228345 0.36529312 -0.31198192 -0.14366598 0.3903826 0.07231066 0.8279017
0.2183614 -0.3292537 -0.021877715 0.09036899 0.3040419 0.37974635 0.16552505 0.2998627
-0.0704345 -0.014145862 0.27940363 0.15679419 0.13298722 0.7861865 0.2419188 0.6468604
-0.08698923 0.28073868 0.046471063 -0.38682956 0.2043942 -0.04531359 -0.09351941 -0.051950034
0.18880977 0.20396088 0.025201375 -0.13928173 0.64017165 0.13941494 0.16614152 -0.6142917
0.46090844 -0.44749334 0.25085086 -0.16941614 0.07185048 -0.21249191 0.09432548 0.3008596
-0.159471 0.02458272 0.4836799 -0.13223097 0.20720635 0.55021536 0.015346433 -0.27743575
0.16492599 0.44236922 -0.17462464 -0.052960202 -0.020005925 0.40412998 -0.05261227 0.33210957
-0.19500697 -0.5613743 0.17992826 -1.2759379 -0.6336994 -0.5490345 0.051754225 0.023443885
0.33995485 0.05873671 -0.1289067 0.23889272 -1.188808 0.3774391 -0.17975362 -0.51099753
0.037674446 0.078944415 0.38290843 0.22544375 -0.30226412 0.42770568 0.17632365 0.5992847
-0.19852509 0.25536034 0.47481242 -0.26260918 0.1327184 -0.35936448 0.34035572 0.015642408
0.1344713 0.670378 0.5691709 -0.2532591 0.55694246 0.12004279 -0.42712587 -0.34060156
0.53065693 0.016001442 0.20764971 -0.21031134 0.03913804 0.031016402 0.09947394 0.33111212
-0.006801583 0.3347459 0.8397343 -0.24584208 -0.14261362 0.3595575 -0.047098238 -0.15487406
0.38838264 0.6114032 0.22804458 -0.42610294 0.14176124 0.011619805 -0.25125667 -0.18436149
-0.2682644 -0.09733946 0.09754294 1.2189642 -0.2261613 0.4615609 -0.35898656 0.86831224

encoder.dcrnn_cells.0.update.bias_pool f4 [2, 64]
00000000: 37c2 713d c3a3 b8bc 1a4b aa3e 99b6 903e
00000010: 24f6 013f 3bb9 bbbb f15e 6dbe 8777 47be
00000020: b74f 46bd eafc efbe cd4f e1be 417f 73bc
00000030: 4628 37be d3b3 a13d 6265 e1bd 1a53 02bf
00000040: ee8e a73e ad80 123c bc07 1b3e 03d6 b2bd
00000050: 07be 95be 33db fdbe 8e6d 32bd 7009 dc3e
00000060: d87e 22be 1a1a 833e bb93 22bf 2675 8e3e
00000070: 0f4c cfbe b7a7 a43d 3cb6 89be 641c 40be
00000080: 39f3 e2be 42a4 5a3d e8e9 79be f70c dd3d
00000090: 0c93 943e 5d28 cebe ea10 9e3d 7795 1abe
000000a0: 04ea 843e 9a8c c7bd c485 db3c 235e 0dbd
000000b0: ea7d d8be 4fcf ecbe 5905 5fbc e38e 243e
000000c0: d840 7c3c ffda 3fbf c281 c8be 01fd 313e
000000d0: 7941 d9be b24c b0be bf14 4d3e f7b7 bfbe
000000e0: 3293 a73e 8696 d7bd 2ed0 cabd a986 0c3d
000000f0: bf95 d4be 0473 b6be 94f3 853e 1355 d8be
00000100: 7a15 043e 9ae2 893e 1fff febe 3f57 e53c
00000110: f710 b03e dd7c 5f3e 618d 34bd 8e84 3e3f
00000120: 50ac a3be eb50 043f 12d2 6d3e 2905 7d39
00000130: aa62 683d 7dc3 7fbe ae38 8cbe 902d 9abe
00000140: 1714 86bd ab02 e7be f790 8bbe 950a 01be
00000150: 45e8 f2be 3a49 293e 876b 403e 1483 bcbe
00000160: c352 90bc c5a1 1fbe fa42 363d f1db 6dbe
00000170: 3728 b83e bd22 923d c355 ef3e 9180 cabe
00000180: c45e be3d 2c46 8d3c 61e8 1b3f 4062 88be
00000190: 0d0b cdbd 0b21 cb3b e96e a53d 96cf ac3e
000001a0: d886 663e 6d9e 44be 5c0f cebd 5d16 4d3e
000001b0: 2722 213e 1c0b 753e fe07 45be 0b4d 59be
000001c0: a2f7 d9bd 964c 9bbd a96b 5c3e dfee a63e
000001d0: 9134 0c3f 6411 c93e 8a58 343e 238e b43e
000001e0: 7d0e 2b3e 91cb ac3e 86a8 d33e 0208 c93d
000001f0: bfa6 ccbd 9332 e43d 2643 083f 40e6 943e
0.05902311 -0.022539025 0.33260423 0.2826431 0.50766206 -0.0057288683 -0.23180749 -0.1947919
-0.048415866 -0.46872646 -0.44006196 -0.014861883 -0.17886457 0.07895627 -0.11005665 -0.5090805
0.32726234 0.0089418115 0.15139669 -0.08732226 -0.29246542 -0.49581298 -0.04356151 0.4297595
-0.158687 0.2560585 -0.6350667 0.27823752 -0.40487716 0.080398016 -0.26896846 -0.1876083
-0.4432619 0.053379305 -0.24405634 0.107934885 0.29018438 -0.4026517 0.0771807 -0.15096079
0.2595979 -0.097436145 0.026797183 -0.034513604 -0.42283565 -0.46251914 -0.013612115 0.16070132
0.015396319 -0.74943537 -0.39161497 0.1738167 -0.42432764 -0.34433514 0.20027445 -0.37445042
0.3272949 -0.10526757 -0.099029884 0.03430811 -0.41520497 -0.35634625 0.26162398 -0.42252406
0.12898818 0.26930696 -0.49804017 0.027995704 0.34387943 0.21824975 -0.044080142 0.7442101
-0.31967402 0.5168597 0.23224667 0.00024129883 0.05673472 -0.24976917 -0.27386993 -0.30112886
-0.065468006 -0.45119223 -0.27259037 -0.12601693 -0.47442833 0.1653184 0.18791018 -0.36818755
-0.017617589 -0.15589054 0.044497468 -0.23228432 0.35968181 0.07135532 0.46745118 -0.39551213
0.09295419 0.017245375 0.6090146 -0.2663746 -0.100118734 0.0061990074 0.08077795 0.33752126
0.22512376 -0.1920106 -0.10061523 0.20028062 0.15735684 0.23930019 -0.1924133 -0.21220796
-0.10642935 -0.07582967 0.21525444 0.3260412 0.5476771 0.3927108 0.176119 0.35264692
0.16704746 0.3374906 0.4133951 0.098159805 -0.09992742 0.11142459 0.5322746 0.29081917

encoder.dcrnn_cells.0.update.linear.weight f4 [64, 65]
00000000: c06c f33d 2d0a 023e a4ad d23e e3fd ad3e
00000010: 7323 873e 877a 96bd 69cb 6b3d 72f6 fabe
00000020: 8903 b5be 19b9 93bd b28a 01bf 3112 8c3e
00000030: 7e71 973d f64d 1d3f a8c0 db3e e193 ae3e
00000040: b806 0fbe 57de 0d3d bec6 5c3d 3fa9 9b3f
00000050: dd27 76be ff9f bfbd 225f 303e 4f0b 1cbf
00000060: e6b8 063f d1aa 34be e5a1 86bc c44d b0bd
00000070: d529 62bc c5f0 c73e 9fb1 cbbd 8555 633e
00000080: f314 bb3e f9dc 73be 2571 363f 7098 f5be
00000090: 92df 173f f6df b73e f408 333e 768b b53d
000000a0: 0823 2a3f 7420 b13d d294 7e3f 510a c33e
000000b0: b054 a53e 957c e73d c595 633e 62cc c33e
000000c0: 6f6f bd3d 780a 933e 0076 ba3d a234 f73d
000000d0: ac30 5b3d 10af 743e a6f4 f6be 33fa 7e3f
000000e0: 4de4 4e3d 5641 99be 6486 0f3f fd99 51be
000000f0: fc6e 24be beba 6fbe b3c0 9b3d 6d2a a43d
00000100: feec 55be 7fd6 7c3e 4d4c 7dbe 35df 9e3e
00000110: 7089 133e 6656 983d f49e 77be 96ed 6abf
00000120: ad9d 51bf 2c79 08bf c1b9 14bd 081b d6be
00000130: 11ee 383c e5a9 523f 390e fd3e b060 08be
00000140: 0af9 0abf 534f 5abf 1094 a93d b207 163e
00000150: 7a9d 243d 134b 143f 8c4c 43bd 1610 6abe
00000160: fef2 c83e 2e0b e0be 23da 04bf 2b8e 11bf
00000170: 0bfc 46be c818 50be 8121 1e3f 1e06 5fbf
00000180: fa5e 163e b98d e33d ba40 683e ece7 183f
00000190: 7a13 92be 96ed 913e b879 86bd 9324 8a3e
000001a0: 467d 5abe 3348 04be b562 d73e 7c38 2abb
000001b0: efa7 45bf 3db6 883e 650c 8bbf b9c9 2cbf
000001c0: f19b 003f 1eb9 313f f00c 6bbf 733a 07bf
000001d0: b13d 253f 40e9 cbbe 0dd3 42be a001 453d
000001e0: 77d7 d53d 4d9f edbe 0580 043f fbf3 64bd
000001f0: 3963 59bf 66a7 e53d e98c b2bd 478e a93d
00000200: 5818 383e a998 1c3e a3a8 a43e 5717 4abf
00000210: 4a28 3ebd 9959 b9be ea3a c83d c6d8 2f3e
00000220: d0ac 94bd 29c8 e2be 64c4 04bf 9872 8f3e
00000230: b438 fc39 3d5e e1be 5bb7 29be 09b9 a7be
00000240: 577c 98be 26bd 3fbf 931a e0be 467f 883e
00000250: 0a97 513f 80c7 21bd a66b 753d 97a1 bdbe
00000260: fd54 32bf bd8a fe3c 8a9d c53e 46d5 79bf
00000270: 8ff4 ddbe 7769 fbbe 91ef 84be 8dd8 8fbe
00000280: 5d81 13bf 1c51 4b3e 24dc 303e 9643 b8bb
00000290: d8e7 9bbd e16f 883e 5296 c23e cbb0 263e
000002a0: 2d29 41bd d1d2 b4be bcf1 a7bd 0d59 5dbe
000002b0: c36d 243e 8bdb 17bf f76e 2b3e be08 11bf
000002c0: 6ed1 d33d 11be 1abe 564b 5f3e 1a8d 65be
000002d0: 7249 8ebf e2ee 1bbf 2318 bf3c d536 053e
000002e0: 930e 163e 281a e03e 48dd 05bf ec73 b73e
000002f0: 77ab 5bbe 89c8 a3be 96e9 87bd d46c bfbe
00000300: ed68 33be c63d b7be 521a 19bd 58e4 3a3f
00000310: 1472 82be 0ce2 3dbe 97ac 37bd 3cf4 99bc
00000320: 332e 463e dfe3 cbbd f0af 763e 3841 473f
00000330: e206 f23c aa59 16be 3254 d0bd cb71 0b3d
00000340: 8ddb a8bd 80e4 e7bd 0c1f e6bd 29a7 c6be
00000350: 4ea1 543e b71b ebbd e522 343c bcb0 6d3e
00000360: c38d 86be 5b1f d2be cd6d b93d 2120 8abc
00000370: c048 4f3d 65be 6fbe 609b 4cbd deef 6abe
00000380: 53a5 fabe 4035 93be 248a dfbd ef88 94be
00000390: b4e1 1f3f 8fe6 a0be 770c 20bf cd05 2bbe
000003a0: 7b69 7a3d a8ec 0a3d 58b6 bbbb 0a26 823e
000003b0: 3d4e ddbc 2ad4 17be 99fb b03c c9ac 243e
000003c0: efb5 003f a044 57be 64a8 09bf c2c3 b33d
000003d0: 4c2a 653e 33a9 8dbd 9158 10bf 3d34 b23c
000003e0: cae6 16bd 18fe 28bf a498 a1be a1db 68bd
000003f0: 236c c73d 976b c5be cdd4 b53e aeb3 4cbe
0.11885977 0.12699194 0.41148102 0.33982763 0.26394233 -0.07347589 0.057567034 -0.49016148
-0.3535426 -0.07213039 -0.5060226 0.2735763 0.07394694 0.61447084 0.42920423 0.34097198
-0.13967407 0.034635868 0.053900473 1.2161025 -0.24038644 -0.09356689 0.1722379 -0.60954756
0.5262588 -0.17643286 -0.01643462 -0.086085826 -0.013803919 0.3905088 -0.09945988 0.22200592
0.3653942 -0.23814763 0.71266395 -0.47967863 0.59325516 0.35913056 0.17483884 0.08864491
0.66459703 0.08648768 0.9944583 0.38093808 0.32291174 0.11303059 0.22225101 0.3824187
0.0924977 0.28718925 0.09104538 0.12070586 0.053513214 0.23894906 -0.48233527 0.99600524
0.050510693 -0.2993266 0.5606444 -0.20468898 -0.16057962 -0.2341108 0.07605114 0.080159046
-0.20891187 0.24691199 -0.24736138 0.31029668 0.14407897 0.07438354 -0.2418173 -0.9176878
-0.8188122 -0.53309894 -0.03630996 -0.41817498 0.011287228 0.8229049 0.49424914 -0.13318133
-0.54286253 -0.8527729 0.08280194 0.14651373 0.040189244 0.57927054 -0.047680423 -0.22857699
0.39247888 -0.4375853 -0.5189535 -0.56857556 -0.19432084 -0.20321953 0.6176987 -0.8711871
0.14684668 0.11111016 0.22680941 0.59728885 -0.28530484 0.28501576 -0.06566185 0.2698103
-0.2133685 -0.12918167 0.42067495 -0.0025973609 -0.7720937 0.26701537 -1.0863158 -0.67495304
0.5023795 0.6942309 -0.91816616 -0.5282356 0.6454726 -0.39826393 -0.19025822 0.048097253
0.10441487 -0.464106 0.5175784 -0.05589674 -0.84917027 0.11213569 -0.08718283 0.082790904
0.17978036 0.1529261 0.3215991 -0.78941864 -0.04642514 -0.3620117 0.09776862 0.17172536
-0.07259524 -0.44293335 -0.5186217 0.28017116 0.00048107433 -0.4401721 -0.16573851 -0.32758358
-0.29782364 -0.7489799 -0.43770275 0.26659602 0.8187109 -0.0394969 0.059917115 -0.37037346
-0.6966093 0.031072015 0.38596755 -0.97591054 -0.43350646 -0.491039 -0.25964025 -0.28094903
-0.5761927 0.1985516 0.17271477 -0.0056232912 -0.0761258 0.26647857 0.3800531 0.16278379
-0.04715841 -0.3531709 -0.08200404 -0.21616001 0.16057496 -0.5931937 0.16741548 -0.56653965
0.1034268 -0.15111567 0.21806082 -0.22417107 -1.1116164 -0.6091138 0.023326939 0.13009198
0.14653997 0.43769956 -0.52290773 0.3583063 -0.21452127 -0.31988934 -0.0663635 -0.37387717
-0.17520495 -0.35789317 -0.037378617 0.73004675 -0.2547766 -0.18543261 -0.04484233 -0.018793218
0.19353561 -0.09955572 0.24090552 0.7783389 0.029544298 -0.14682642 -0.10172309 0.03404407
-0.08245001 -0.1132288 -0.112363905 -0.38799408 0.20764658 -0.114798956 0.010994648 0.2321195
-0.2628003 -0.41039547 0.09054146 -0.016861023 0.05060649 -0.23412473 -0.049952865 -0.22943065
-0.48954257 -0.28751564 -0.1091502 -0.29010722 0.6245377 -0.31425902 -0.6251902 -0.16701432
0.06113575 0.0339171 -0.005728524 0.25419647 -0.027014846 -0.14827028 0.021604346 0.16081537
0.5027761 -0.21022272 -0.5377257 0.08777572 0.22379416 -0.06917038 -0.5638514 0.021753425
-0.03684119 -0.66012716 -0.31561768 -0.05685008 0.09737422 -0.38558647 0.35513917 -0.19990417

encoder.dcrnn_cells.0.update.linear.bias f4 [64]
00000000: 1bb7 ec3e 8fb3 7f3e 393c 063f 2c04 3a3f
00000010: 64e9 0f3f d818 f13d b674 f4bd 0d0b ce3e
00000020: f982 c03e a0ce 0f3e 0d69 123f 18a5 2f3f
00000030: 1535 5f3f 0c6f 013f 66fd 533f 1fb6 3b3f
00000040: 7c6c 94bb cc61 1a3e 3036 2c3e c033 563e
00000050: 66df 7f3f 2de4 113f 84d3 c83d 852d 8c3f
00000060: 410f c63e 6f18 583c a027 283f 58e6 dc3e
00000070: c331 3c3f f868 cebd a461 263f 3e6f 363d
00000080: 2121 193e 575c 593e 316a 903e 5737 bc3e
00000090: 92ba 213f f5a2 063f b8ac 623d 7502 293f
000000a0: 0c8d 3e3f 654f bb3e 66b3 373f 8d39 013f
000000b0: 8d76 293f 4553 3b3e eb54 5d3f 4cf3 c33e
000000c0: 370a b33c 687f 073f 2e17 7f3f 7fbf b43e
000000d0: 8086 2f3f 09b2 1c3f f339 2b3f a004 843f
000000e0: cd97 853e 5604 363f 4b05 3b3d e8a2 313f
000000f0: ec3a 403e df76 5a3e 6be9 643f cfa7 4a3f
0.46233448 0.2497084 0.5243564 0.72662616 0.562155 0.11772317 -0.11936323 0.40242806
0.37599924 0.14043665 0.57191545 0.6861129 0.8719037 0.5056007 0.8280853 0.7332477
-0.004529534 0.15076369 0.16817546 0.20918179 0.99950254 0.56988794 0.098059684 1.0951391
0.38683513 0.013189419 0.6568546 0.43144488 0.7351343 -0.10078615 0.6499274 0.044539683
0.14954044 0.21226631 0.28206018 0.3676097 0.6317531 0.525924 0.0553405 0.66019374
0.7443397 0.3658401 0.71758115 0.5047844 0.6619652 0.18293484 0.864577 0.38271558
0.021855457 0.5292878 0.99644744 0.3530235 0.68564606 0.6120916 0.668853 1.0313911
0.26092377 0.71100366 0.045659345 0.693892 0.18772477 0.21334408 0.8941867 0.79162306
